Model/AGRU_Lyft.pt (torch, 506604 bytes, 25 tensors)

weight f4 [16, 3, 3]
0	0xbf2b6a4e	-0.66959083
1	0x3ee0bf5d	0.43896
2	0xbc955737	-0.018230064
3	0xbf0ea1b1	-0.5571547
4	0x3cfd66d6	0.030932825
5	0x3faec3e7	1.3653535
6	0x3f34edfb	0.7067563
7	0xbbcb5fb5	-0.0062064775
8	0x3f0e99d7	0.5570349
9	0x3e873b78	0.2641256
10	0xbdb3a4a9	-0.08771641
11	0xbdc367ab	-0.095412575
12	0x3e0ee842	0.13955787
13	0x3e66181a	0.22470132
14	0xbfd0151e	-1.6256444
15	0xbda1a898	-0.07893485
16	0xbf0db09c	-0.5534761
17	0xbd736d7f	-0.059430595
18	0x3e8d6b1a	0.27620775
19	0xbe3f336f	-0.18671964
20	0xbdbc486d	-0.091935016
21	0x3fd99188	1.6997538
22	0xbf4faa99	-0.81119686
23	0xbf6e5e0b	-0.9311225
24	0xbbf954c9	-0.007608984
25	0x3e2655c1	0.1624365
26	0xbe0115a7	-0.12605916
27	0x3e656b82	0.22404292
28	0x3e686911	0.2269633
29	0xbf0257a7	-0.50914997
30	0x3ef20a33	0.47273406
31	0xbdf3f899	-0.119126506
32	0x3e5c6cba	0.21525851
33	0xbe8368e2	-0.25665957
34	0xbe84996c	-0.25898302
35	0xbea5133a	-0.3224123
36	0xbf1d705c	-0.6149957
37	0x3ebd793d	0.3700656
38	0x3ea86c97	0.32895347
39	0xbf0b1304	-0.5432589
40	0x3efba22c	0.49147165
41	0xbef83fa2	-0.48486048
42	0xbe0e5b91	-0.13902117
43	0x3d8b861b	0.06812688
44	0xbc51add7	-0.012797794
45	0xbe289ba2	-0.16465619
46	0x3dbf26ec	0.09333596
47	0x3cd8bc56	0.026456993
48	0xbd080b7c	-0.033214077
49	0xbec4c00f	-0.3842778
50	0x3f204edf	0.6262035
51	0xbd60bc47	-0.054867055
52	0x3dd9784a	0.106186464
53	0xbe312489	-0.17299093
54	0x3e58aa7c	0.21158785
55	0x3d384151	0.044984166
56	0xbe03b013	-0.12860136
57	0xbf60002f	-0.8750028
58	0xbeaaa1c6	-0.33326548
59	0x3f03eb55	0.51530963
60	0xbebf8f48	-0.37414002
61	0xbe917aeb	-0.2841409
62	0x3ee75505	0.45182052
63	0x3e6f9795	0.23397668
64	0xbd9b5e88	-0.0758639
65	0xbe1af03a	-0.15130702
66	0xbf29099a	-0.66030276
67	0x3ec4c291	0.38429692
68	0x3d9cfdde	0.07665609
69	0xbe655aee	-0.22397968
70	0xbe936b1f	-0.28792664
71	0x3e1af7c1	0.15133573
72	0x3dd8cb67	0.10585671
73	0x3d386d25	0.045025963
74	0x3c429b0c	0.011877786
75	0xbd1616d0	-0.03664285
76	0xbeaa2544	-0.33231556
77	0x3e3f33a1	0.18672039
78	0x3f159611	0.5843211
79	0xbeaa186f	-0.33221766
80	0x3f23d441	0.6399575
81	0xbc801da3	-0.015639132
82	0x3ea10d00	0.3145523
83	0xbe64fa98	-0.22361219
84	0xbecc1c79	-0.39865473
85	0xbf7fe43b	-0.9995763
86	0x3f54a8b3	0.83069915
87	0x3f21194e	0.62929237
88	0xbea0c790	-0.31402254
89	0xbea9d3c7	-0.33169386
90	0xbe0197d4	-0.12655574
91	0xbe86a93d	-0.26300994
92	0x3e5edbf7	0.21763597
93	0xbda19429	-0.078895874
94	0x3ea1fedc	0.31639755
95	0xbf090383	-0.53520983
96	0xbd433281	-0.047655586
97	0x3f322df0	0.69601345
98	0x3f025f2b	0.50926465
99	0xbc6fb8f8	-0.014631502
100	0xbec7bf8d	-0.3901333
101	0x3ece3576	0.40275162
102	0xbf2c66ce	-0.6734437
103	0xbeb3852b	-0.35062537
104	0x3f72996b	0.9476535
105	0xbe70f840	-0.235322
106	0x3ed9fb19	0.42574385
107	0xbe72d121	-0.23712589
108	0x3df93a7a	0.12169357
109	0x3e8c3a47	0.27388212
110	0xbef004d1	-0.46878675
111	0xbe05c84b	-0.13064687
112	0xbe6c5b5d	-0.23081727
113	0x3f35a343	0.7095224
114	0xbeebe6f4	-0.4607464
115	0x3eb938b6	0.3617608
116	0xbe73d932	-0.23813322
117	0xbd80b96b	-0.06285366
118	0x3cf17e16	0.029479068
119	0xbe9ccc75	-0.30624738
120	0x3e43c9e0	0.19119978
121	0x3f634cb7	0.8878893
122	0x3efacbbd	0.48983565
123	0x3f15cd74	0.5851662
124	0xbefe8135	-0.49707952
125	0xbd75425d	-0.059877742
126	0x3f4ba30e	0.79545677
127	0xbe8a5a8b	-0.27022204
128	0xbf1a0801	-0.60168463
129	0xbdcffcc5	-0.10155634
130	0x3f10c8a8	0.5655618
131	0x3c9bc77c	0.01901602
132	0x3d2a74a9	0.041615162
133	0x3ec4d940	0.38447
134	0x3effdb6f	0.49972102
135	0xbf04df14	-0.5190289
136	0x3cbc9e7b	0.023024788
137	0x3efc4047	0.4926779
138	0xbef92362	-0.48659807
139	0xbf09d79c	-0.5384462
140	0x3f74444d	0.9541672
141	0x3f465be1	0.77483946
142	0xbf130f01	-0.5744477
143	0xbe97d17a	-0.29652005

pe f4 [1, 5000, 16]
0	0x00000000	0.0
1	0x3f800000	1.0
2	0x00000000	0.0
3	0x3f800000	1.0
4	0x00000000	0.0
5	0x3f800000	1.0
6	0x00000000	0.0
7	0x3f800000	1.0
8	0x00000000	0.0
9	0x3f800000	1.0
10	0x00000000	0.0
11	0x3f800000	1.0
12	0x00000000	0.0
13	0x3f800000	1.0
14	0x00000000	0.0
15	0x3f800000	1.0
16	0x3f576aa4	0.84147096
17	0x3f0a5141	0.54030234
18	0x3e9f393e	0.3109836
19	0x3f734e6b	0.9504153
20	0x3dcc7576	0.099833414
21	0x3f7eb898	0.9950042
22	0x3d01815b	0.031617504
23	0x3f7fdf3c	0.99950004
24	0x3c23d657	0.009999833
25	0x3f7ffcb9	0.99995
26	0x3b4f3e1c	0.0031622713
27	0x3f7fffac	0.999995
28	0x3a83126d	0.0009999998
29	0x3f7ffff8	0.9999995
30	0x39a5cb61	0.00031622782
31	0x3f7fffff	0.99999994
32	0x3f68c7b7	0.9092974
33	0xbed51133	-0.41614684
34	0x3f17541b	0.5911271
35	0x3f4e7bec	0.8065784
36	0x3e4b6ff8	0.19866931
37	0x3f7ae5a5	0.9800666
38	0x3d8170c8	0.063203394
39	0x3f7f7cf9	0.9980007
40	0x3ca3d43e	0.019998666
41	0x3f7ff2e5	0.9998
42	0x3bcf3dd8	0.006324511
43	0x3f7ffeb1	0.99998003
44	0x3b031268	0.0019999985
45	0x3f7fffdf	0.99999803
46	0x3a25cb60	0.0006324556
47	0x3f7ffffd	0.9999998
48	0x3e1081c3	0.14112
49	0xbf7d7026	-0.9899925
50	0x3f5009c2	0.8126489
51	0x3f152f58	0.58275366
52	0x3e974e6c	0.2955202
53	0x3f7490ef	0.9553365
54	0x3dc1ffc0	0.094726086
55	0x3f7ed94f	0.99550337
56	0x3cf5b91f	0.0299955
57	0x3f7fe283	0.99955004
58	0x3c1b6e0d	0.009486687
59	0x3f7ffd0d	0.999955
60	0x3b449b92	0.0029999954
61	0x3f7fffb5	0.9999955
62	0x3a78b110	0.00094868336
63	0x3f7ffff9	0.9999996
64	0xbf41bdcf	-0.7568025
65	0xbf275530	-0.6536436
66	0x3f741dde	0.95358074
67	0x3e9a2eb1	0.30113748
68	0x3ec761d7	0.38941833
69	0x3f6bcaa7	0.921061
70	0x3e012e88	0.12615407
71	0x3f7df469	0.99201065
72	0x3d23cbdb	0.039989334
73	0x3f7fcb94	0.9992001
74	0x3c4f3cc9	0.01264877
75	0x3f7ffac2	0.99992
76	0x3b831257	0.003999989
77	0x3f7fff7a	0.999992
78	0x3aa5cb5e	0.0012649109
79	0x3f7ffff3	0.9999992
80	0xbf757c10	-0.9589243
81	0x3e913c2c	0.2836622
82	0x3f7ffc7f	0.99994653
83	0xbc2972e9	-0.010342338
84	0x3ef57743	0.47942552
85	0x3f60a940	0.87758255
86	0x3e213c1d	0.15745588
87	0x3f7cce81	0.987526
88	0x3d4cb6f4	0.049979165
89	0x3f7fae19	0.99875027
90	0x3c81857e	0.015810724
91	0x3f7ff7cf	0.999875
92	0x3ba3d6dd	0.004999979
93	0x3f7fff2e	0.9999875
94	0x3acf3e33	0.0015811383
95	0x3f7fffeb	0.99999875
96	0xbe8f0f8c	-0.2794155
97	0x3f75cdb8	0.96017027
98	0x3f72784e	0.9471482
99	0xbea43f6d	-0.3207964
100	0x3f108c68	0.5646424
101	0x3f534932	0.8253356
102	0x3e41206e	0.18860027
103	0x3f7b67e3	0.98205394
104	0x3d759cd1	0.059964005
105	0x3f7f8a12	0.99820054
106	0x3c9b6c43	0.018972522
107	0x3f7ff434	0.99982
108	0x3bc49b58	0.0059999637
109	0x3f7ffed2	0.999982
110	0x3af8b108	0.0018973658
111	0x3f7fffe2	0.9999982
112	0x3f283046	0.6569866
113	0x3f40ffbd	0.75390226
114	0x3f4ce86e	0.8004216
115	0xbf1974bc	-0.5994375
116	0x3f24eb72	0.6442176
117	0x3f43ccb3	0.7648422
118	0x3e60d350	0.2195561
119	0x3f79c0ea	0.9755999
120	0x3d8f3e32	0.06994285
121	0x3f7f5f81	0.997551
122	0x3cb552a2	0.022134129
123	0x3f7feff2	0.999755
124	0x3be55fc5	0.006999942
125	0x3f7ffe65	0.9999755
126	0x3b1111ed	0.0022135929
127	0x3f7fffd7	0.99999756
128	0x3f7d4695	0.98935825
129	0xbe14fdf6	-0.14550003
130	0x3f13067e	0.5743178
131	0xbf5191e5	-0.8186324
132	0x3f37a4a5	0.717356
133	0x3f325b5f	0.6967067
134	0x3e802651	0.25029233
135	0x3f77da02	0.9681703
136	0x3da3aa50	0.07991469
137	0x3f7f2e65	0.9968017
138	0x3ccf388a	0.025295515
139	0x3f7feb08	0.99968004
140	0x3c031212	0.007999914
141	0x3f7ffde7	0.999968
142	0x3b25cb55	0.0025298197
143	0x3f7fffca	0.9999968
144	0x3ed30132	0.4121185
145	0xbf693fd5	-0.91113025
146	0x3e951fee	0.29125923
147	0xbf74e6a2	-0.9566442
148	0x3f48881c	0.78332686
149	0x3f1f21d5	0.62161
150	0x3e8fc22d	0.28077832
151	0x3f75b3a9	0.95977265
152	0x3db8123e	0.089878544
153	0x3f7ef6c2	0.9959527
154	0x3ce91dea	0.028456647
155	0x3f7fe576	0.99959505
156	0x3c13743a	0.008999879
157	0x3f7ffd59	0.9999595
158	0x3b3a84bc	0.0028460464
159	0x3f7fffbc	0.99999595
160	0xbf0b44f8	-0.5440211
161	0xbf56cd64	-0.8390715
162	0xbca97097	-0.02068357
163	0xbf7ff1fb	-0.9997861
164	0x3f576aa4	0.84147096
165	0x3f0a5141	0.54030234
166	0x3e9f393d	0.31098357
167	0x3f734e6b	0.9504153
168	0x3dcc7576	0.099833414
169	0x3f7eb898	0.9950042
170	0x3d018159	0.031617496
171	0x3f7fdf3c	0.99950004
172	0x3c23d657	0.009999833
173	0x3f7ffcb9	0.99995
174	0x3b4f3e22	0.0031622727
175	0x3f7fffac	0.999995
176	0xbf7fff5c	-0.9999902
177	0x3b910572	0.004425698
178	0xbea9411f	-0.33057496
179	0xbf719b8d	-0.94377977
180	0x3f64262a	0.89120734
181	0x3ee83dc3	0.4535962
182	0x3eae878b	0.34087786
183	0x3f70aae4	0.9401076
184	0x3de0d372	0.1097783
185	0x3f7e73e8	0.9939561
186	0x3d0e7368	0.03477803
187	0x3f7fd85b	0.9993951
188	0x3c343869	0.010999777
189	0x3f7ffc09	0.9999395
190	0x3b63f787	0.003478499
191	0x3f7fff9b	0.999994
192	0xbf095cd8	-0.53657293
193	0x3f5806d0	0.84385395
194	0xbf1b9124	-0.6076834
195	0xbf4b4f56	-0.7941793
196	0x3f6e9a1d	0.9320391
197	0x3eb986f7	0.36235783
198	0x3ebda92c	0.3704313
199	0x3f6dc9c3	0.9288599
200	0x3df52bac	0.119712204
201	0x3f7e28b5	0.99280864
202	0x3d1b6519	0.03793821
203	0x3f7fd0d2	0.9992801
204	0x3c449a70	0.011999711
205	0x3f7ffb48	0.999928
206	0x3b78b0eb	0.0037947248
207	0x3f7fff87	0.9999928
208	0x3ed72022	0.42016703
209	0x3f684e6f	0.9074468
210	0xbf53144c	-0.82452846
211	0xbf10d99d	-0.5658205
212	0x3f76abc0	0.9635582
213	0x3e88f59d	0.26749888
214	0x3ecc9a3f	0.3996143
215	0x3f6aabc3	0.9166834
216	0x3e04bed0	0.12963414
217	0x3f7dd700	0.9915619
218	0x3d285665	0.041098017
219	0x3f7fc8a1	0.9991551
220	0x3c54fc6a	0.012999633
221	0x3f7ffa76	0.9999155
222	0x3b86b526	0.00411095
223	0x3f7fff72	0.99999154
224	0x3f7d9872	0.9906074
225	0x3e0c04d7	0.13673721
226	0xbf75a8b3	-0.9596054
227	0xbe900d0a	-0.28134948
228	0x3f7c466f	0.98544973
229	0x3e2e0be7	0.16996728
230	0x3edb56f4	0.42839777
231	0x3f6751b1	0.90359026
232	0x3e0ee464	0.13954312
233	0x3f7d7ecc	0.990216
234	0x3d354743	0.044257414
235	0x3f7fbfc9	0.99902016
236	0x3c655e55	0.013999541
237	0x3f7ff994	0.999902
238	0x3b9111d6	0.004427175
239	0x3f7fff5c	0.9999902
240	0x3f267944	0.65028787
241	0xbf427ae8	-0.7596879
242	0xbf7fe075	-0.9995187
243	0x3cfe2296	0.031022351
244	0x3f7f5bd5	0.997495
245	0x3d90deba	0.07073732
246	0x3ee9db83	0.45675287
247	0x3f63bc68	0.8895936
248	0x3e19064f	0.14943813
249	0x3f7d201a	0.9887711
250	0x3d4237aa	0.047416367
251	0x3f7fb649	0.9988752
252	0x3c75c032	0.014999436
253	0x3f7ff8a1	0.9998875
254	0x3b9b6e85	0.0047433996
255	0x3f7fff43	0.99998873

weight f4 [24, 16]
0	0x00000000	0.0
1	0x3f800000	1.0
2	0x00000000	0.0
3	0x3f800000	1.0
4	0x00000000	0.0
5	0x3f800000	1.0
6	0x00000000	0.0
7	0x3f800000	1.0
8	0x00000000	0.0
9	0x3f800000	1.0
10	0x00000000	0.0
11	0x3f800000	1.0
12	0x00000000	0.0
13	0x3f800000	1.0
14	0x00000000	0.0
15	0x3f800000	1.0
16	0x3f576aa4	0.84147096
17	0x3f0a5141	0.54030234
18	0x3e9f393e	0.3109836
19	0x3f734e6b	0.9504153
20	0x3dcc7576	0.099833414
21	0x3f7eb898	0.9950042
22	0x3d01815b	0.031617504
23	0x3f7fdf3c	0.99950004
24	0x3c23d657	0.009999833
25	0x3f7ffcb9	0.99995
26	0x3b4f3e1c	0.0031622713
27	0x3f7fffac	0.999995
28	0x3a83126d	0.0009999998
29	0x3f7ffff8	0.9999995
30	0x39a5cb61	0.00031622782
31	0x3f7fffff	0.99999994
32	0x3f68c7b7	0.9092974
33	0xbed51133	-0.41614684
34	0x3f17541b	0.5911271
35	0x3f4e7bec	0.8065784
36	0x3e4b6ff8	0.19866931
37	0x3f7ae5a5	0.9800666
38	0x3d8170c8	0.063203394
39	0x3f7f7cf9	0.9980007
40	0x3ca3d43e	0.019998666
41	0x3f7ff2e5	0.9998
42	0x3bcf3dd8	0.006324511
43	0x3f7ffeb1	0.99998003
44	0x3b031268	0.0019999985
45	0x3f7fffdf	0.99999803
46	0x3a25cb60	0.0006324556
47	0x3f7ffffd	0.9999998
48	0x3e1081c3	0.14112
49	0xbf7d7026	-0.9899925
50	0x3f5009c2	0.8126489
51	0x3f152f58	0.58275366
52	0x3e974e6c	0.2955202
53	0x3f7490ef	0.9553365
54	0x3dc1ffc0	0.094726086
55	0x3f7ed94f	0.99550337
56	0x3cf5b91f	0.0299955
57	0x3f7fe283	0.99955004
58	0x3c1b6e0d	0.009486687
59	0x3f7ffd0d	0.999955
60	0x3b449b92	0.0029999954
61	0x3f7fffb5	0.9999955
62	0x3a78b110	0.00094868336
63	0x3f7ffff9	0.9999996
64	0xbf41bdcf	-0.7568025
65	0xbf275530	-0.6536436
66	0x3f741dde	0.95358074
67	0x3e9a2eb1	0.30113748
68	0x3ec761d7	0.38941833
69	0x3f6bcaa7	0.921061
70	0x3e012e88	0.12615407
71	0x3f7df469	0.99201065
72	0x3d23cbdb	0.039989334
73	0x3f7fcb94	0.9992001
74	0x3c4f3cc9	0.01264877
75	0x3f7ffac2	0.99992
76	0x3b831257	0.003999989
77	0x3f7fff7a	0.999992
78	0x3aa5cb5e	0.0012649109
79	0x3f7ffff3	0.9999992
80	0xbf757c10	-0.9589243
81	0x3e913c2c	0.2836622
82	0x3f7ffc7f	0.99994653
83	0xbc2972e9	-0.010342338
84	0x3ef57743	0.47942552
85	0x3f60a940	0.87758255
86	0x3e213c1d	0.15745588
87	0x3f7cce81	0.987526
88	0x3d4cb6f4	0.049979165
89	0x3f7fae19	0.99875027
90	0x3c81857e	0.015810724
91	0x3f7ff7cf	0.999875
92	0x3ba3d6dd	0.004999979
93	0x3f7fff2e	0.9999875
94	0x3acf3e33	0.0015811383
95	0x3f7fffeb	0.99999875
96	0xbe8f0f8c	-0.2794155
97	0x3f75cdb8	0.96017027
98	0x3f72784e	0.9471482
99	0xbea43f6d	-0.3207964
100	0x3f108c68	0.5646424
101	0x3f534932	0.8253356
102	0x3e41206e	0.18860027
103	0x3f7b67e3	0.98205394
104	0x3d759cd1	0.059964005
105	0x3f7f8a12	0.99820054
106	0x3c9b6c43	0.018972522
107	0x3f7ff434	0.99982
108	0x3bc49b58	0.0059999637
109	0x3f7ffed2	0.999982
110	0x3af8b108	0.0018973658
111	0x3f7fffe2	0.9999982
112	0x3f283046	0.6569866
113	0x3f40ffbd	0.75390226
114	0x3f4ce86e	0.8004216
115	0xbf1974bc	-0.5994375
116	0x3f24eb72	0.6442176
117	0x3f43ccb3	0.7648422
118	0x3e60d350	0.2195561
119	0x3f79c0ea	0.9755999
120	0x3d8f3e32	0.06994285
121	0x3f7f5f81	0.997551
122	0x3cb552a2	0.022134129
123	0x3f7feff2	0.999755
124	0x3be55fc5	0.006999942
125	0x3f7ffe65	0.9999755
126	0x3b1111ed	0.0022135929
127	0x3f7fffd7	0.99999756
128	0x3f7d4695	0.98935825
129	0xbe14fdf6	-0.14550003
130	0x3f13067e	0.5743178
131	0xbf5191e5	-0.8186324
132	0x3f37a4a5	0.717356
133	0x3f325b5f	0.6967067
134	0x3e802651	0.25029233
135	0x3f77da02	0.9681703
136	0x3da3aa50	0.07991469
137	0x3f7f2e65	0.9968017
138	0x3ccf388a	0.025295515
139	0x3f7feb08	0.99968004
140	0x3c031212	0.007999914
141	0x3f7ffde7	0.999968
142	0x3b25cb55	0.0025298197
143	0x3f7fffca	0.9999968
144	0x3ed30132	0.4121185
145	0xbf693fd5	-0.91113025
146	0x3e951fee	0.29125923
147	0xbf74e6a2	-0.9566442
148	0x3f48881c	0.78332686
149	0x3f1f21d5	0.62161
150	0x3e8fc22d	0.28077832
151	0x3f75b3a9	0.95977265
152	0x3db8123e	0.089878544
153	0x3f7ef6c2	0.9959527
154	0x3ce91dea	0.028456647
155	0x3f7fe576	0.99959505
156	0x3c13743a	0.008999879
157	0x3f7ffd59	0.9999595
158	0x3b3a84bc	0.0028460464
159	0x3f7fffbc	0.99999595
160	0xbf0b44f8	-0.5440211
161	0xbf56cd64	-0.8390715
162	0xbca97097	-0.02068357
163	0xbf7ff1fb	-0.9997861
164	0x3f576aa4	0.84147096
165	0x3f0a5141	0.54030234
166	0x3e9f393d	0.31098357
167	0x3f734e6b	0.9504153
168	0x3dcc7576	0.099833414
169	0x3f7eb898	0.9950042
170	0x3d018159	0.031617496
171	0x3f7fdf3c	0.99950004
172	0x3c23d657	0.009999833
173	0x3f7ffcb9	0.99995
174	0x3b4f3e22	0.0031622727
175	0x3f7fffac	0.999995
176	0xbf7fff5c	-0.9999902
177	0x3b910572	0.004425698
178	0xbea9411f	-0.33057496
179	0xbf719b8d	-0.94377977
180	0x3f64262a	0.89120734
181	0x3ee83dc3	0.4535962
182	0x3eae878b	0.34087786
183	0x3f70aae4	0.9401076
184	0x3de0d372	0.1097783
185	0x3f7e73e8	0.9939561
186	0x3d0e7368	0.03477803
187	0x3f7fd85b	0.9993951
188	0x3c343869	0.010999777
189	0x3f7ffc09	0.9999395
190	0x3b63f787	0.003478499
191	0x3f7fff9b	0.999994
192	0xbf095cd8	-0.53657293
193	0x3f5806d0	0.84385395
194	0xbf1b9124	-0.6076834
195	0xbf4b4f56	-0.7941793
196	0x3f6e9a1d	0.9320391
197	0x3eb986f7	0.36235783
198	0x3ebda92c	0.3704313
199	0x3f6dc9c3	0.9288599
200	0x3df52bac	0.119712204
201	0x3f7e28b5	0.99280864
202	0x3d1b6519	0.03793821
203	0x3f7fd0d2	0.9992801
204	0x3c449a70	0.011999711
205	0x3f7ffb48	0.999928
206	0x3b78b0eb	0.0037947248
207	0x3f7fff87	0.9999928
208	0x3ed72022	0.42016703
209	0x3f684e6f	0.9074468
210	0xbf53144c	-0.82452846
211	0xbf10d99d	-0.5658205
212	0x3f76abc0	0.9635582
213	0x3e88f59d	0.26749888
214	0x3ecc9a3f	0.3996143
215	0x3f6aabc3	0.9166834
216	0x3e04bed0	0.12963414
217	0x3f7dd700	0.9915619
218	0x3d285665	0.041098017
219	0x3f7fc8a1	0.9991551
220	0x3c54fc6a	0.012999633
221	0x3f7ffa76	0.9999155
222	0x3b86b526	0.00411095
223	0x3f7fff72	0.99999154
224	0x3f7d9872	0.9906074
225	0x3e0c04d7	0.13673721
226	0xbf75a8b3	-0.9596054
227	0xbe900d0a	-0.28134948
228	0x3f7c466f	0.98544973
229	0x3e2e0be7	0.16996728
230	0x3edb56f4	0.42839777
231	0x3f6751b1	0.90359026
232	0x3e0ee464	0.13954312
233	0x3f7d7ecc	0.990216
234	0x3d354743	0.044257414
235	0x3f7fbfc9	0.99902016
236	0x3c655e55	0.013999541
237	0x3f7ff994	0.999902
238	0x3b9111d6	0.004427175
239	0x3f7fff5c	0.9999902
240	0x3f267944	0.65028787
241	0xbf427ae8	-0.7596879
242	0xbf7fe075	-0.9995187
243	0x3cfe2296	0.031022351
244	0x3f7f5bd5	0.997495
245	0x3d90deba	0.07073732
246	0x3ee9db83	0.45675287
247	0x3f63bc68	0.8895936
248	0x3e19064f	0.14943813
249	0x3f7d201a	0.9887711
250	0x3d4237aa	0.047416367
251	0x3f7fb649	0.9988752
252	0x3c75c032	0.014999436
253	0x3f7ff8a1	0.9998875
254	0x3b9b6e85	0.0047433996
255	0x3f7fff43	0.99998873

weight f4 [7, 16]
0	0x00000000	0.0
1	0x3f800000	1.0
2	0x00000000	0.0
3	0x3f800000	1.0
4	0x00000000	0.0
5	0x3f800000	1.0
6	0x00000000	0.0
7	0x3f800000	1.0
8	0x00000000	0.0
9	0x3f800000	1.0
10	0x00000000	0.0
11	0x3f800000	1.0
12	0x00000000	0.0
13	0x3f800000	1.0
14	0x00000000	0.0
15	0x3f800000	1.0
16	0x3f576aa4	0.84147096
17	0x3f0a5141	0.54030234
18	0x3e9f393e	0.3109836
19	0x3f734e6b	0.9504153
20	0x3dcc7576	0.099833414
21	0x3f7eb898	0.9950042
22	0x3d01815b	0.031617504
23	0x3f7fdf3c	0.99950004
24	0x3c23d657	0.009999833
25	0x3f7ffcb9	0.99995
26	0x3b4f3e1c	0.0031622713
27	0x3f7fffac	0.999995
28	0x3a83126d	0.0009999998
29	0x3f7ffff8	0.9999995
30	0x39a5cb61	0.00031622782
31	0x3f7fffff	0.99999994
32	0x3f68c7b7	0.9092974
33	0xbed51133	-0.41614684
34	0x3f17541b	0.5911271
35	0x3f4e7bec	0.8065784
36	0x3e4b6ff8	0.19866931
37	0x3f7ae5a5	0.9800666
38	0x3d8170c8	0.063203394
39	0x3f7f7cf9	0.9980007
40	0x3ca3d43e	0.019998666
41	0x3f7ff2e5	0.9998
42	0x3bcf3dd8	0.006324511
43	0x3f7ffeb1	0.99998003
44	0x3b031268	0.0019999985
45	0x3f7fffdf	0.99999803
46	0x3a25cb60	0.0006324556
47	0x3f7ffffd	0.9999998
48	0x3e1081c3	0.14112
49	0xbf7d7026	-0.9899925
50	0x3f5009c2	0.8126489
51	0x3f152f58	0.58275366
52	0x3e974e6c	0.2955202
53	0x3f7490ef	0.9553365
54	0x3dc1ffc0	0.094726086
55	0x3f7ed94f	0.99550337
56	0x3cf5b91f	0.0299955
57	0x3f7fe283	0.99955004
58	0x3c1b6e0d	0.009486687
59	0x3f7ffd0d	0.999955
60	0x3b449b92	0.0029999954
61	0x3f7fffb5	0.9999955
62	0x3a78b110	0.00094868336
63	0x3f7ffff9	0.9999996
64	0xbf41bdcf	-0.7568025
65	0xbf275530	-0.6536436
66	0x3f741dde	0.95358074
67	0x3e9a2eb1	0.30113748
68	0x3ec761d7	0.38941833
69	0x3f6bcaa7	0.921061
70	0x3e012e88	0.12615407
71	0x3f7df469	0.99201065
72	0x3d23cbdb	0.039989334
73	0x3f7fcb94	0.9992001
74	0x3c4f3cc9	0.01264877
75	0x3f7ffac2	0.99992
76	0x3b831257	0.003999989
77	0x3f7fff7a	0.999992
78	0x3aa5cb5e	0.0012649109
79	0x3f7ffff3	0.9999992
80	0xbf757c10	-0.9589243
81	0x3e913c2c	0.2836622
82	0x3f7ffc7f	0.99994653
83	0xbc2972e9	-0.010342338
84	0x3ef57743	0.47942552
85	0x3f60a940	0.87758255
86	0x3e213c1d	0.15745588
87	0x3f7cce81	0.987526
88	0x3d4cb6f4	0.049979165
89	0x3f7fae19	0.99875027
90	0x3c81857e	0.015810724
91	0x3f7ff7cf	0.999875
92	0x3ba3d6dd	0.004999979
93	0x3f7fff2e	0.9999875
94	0x3acf3e33	0.0015811383
95	0x3f7fffeb	0.99999875
96	0xbe8f0f8c	-0.2794155
97	0x3f75cdb8	0.96017027
98	0x3f72784e	0.9471482
99	0xbea43f6d	-0.3207964
100	0x3f108c68	0.5646424
101	0x3f534932	0.8253356
102	0x3e41206e	0.18860027
103	0x3f7b67e3	0.98205394
104	0x3d759cd1	0.059964005
105	0x3f7f8a12	0.99820054
106	0x3c9b6c43	0.018972522
107	0x3f7ff434	0.99982
108	0x3bc49b58	0.0059999637
109	0x3f7ffed2	0.999982
110	0x3af8b108	0.0018973658
111	0x3f7fffe2	0.9999982

weight f4 [32, 16]
0	0x00000000	0.0
1	0x3f800000	1.0
2	0x00000000	0.0
3	0x3f800000	1.0
4	0x00000000	0.0
5	0x3f800000	1.0
6	0x00000000	0.0
7	0x3f800000	1.0
8	0x00000000	0.0
9	0x3f800000	1.0
10	0x00000000	0.0
11	0x3f800000	1.0
12	0x00000000	0.0
13	0x3f800000	1.0
14	0x00000000	0.0
15	0x3f800000	1.0
16	0x3f576aa4	0.84147096
17	0x3f0a5141	0.54030234
18	0x3e9f393e	0.3109836
19	0x3f734e6b	0.9504153
20	0x3dcc7576	0.099833414
21	0x3f7eb898	0.9950042
22	0x3d01815b	0.031617504
23	0x3f7fdf3c	0.99950004
24	0x3c23d657	0.009999833
25	0x3f7ffcb9	0.99995
26	0x3b4f3e1c	0.0031622713
27	0x3f7fffac	0.999995
28	0x3a83126d	0.0009999998
29	0x3f7ffff8	0.9999995
30	0x39a5cb61	0.00031622782
31	0x3f7fffff	0.99999994
32	0x3f68c7b7	0.9092974
33	0xbed51133	-0.41614684
34	0x3f17541b	0.5911271
35	0x3f4e7bec	0.8065784
36	0x3e4b6ff8	0.19866931
37	0x3f7ae5a5	0.9800666
38	0x3d8170c8	0.063203394
39	0x3f7f7cf9	0.9980007
40	0x3ca3d43e	0.019998666
41	0x3f7ff2e5	0.9998
42	0x3bcf3dd8	0.006324511
43	0x3f7ffeb1	0.99998003
44	0x3b031268	0.0019999985
45	0x3f7fffdf	0.99999803
46	0x3a25cb60	0.0006324556
47	0x3f7ffffd	0.9999998
48	0x3e1081c3	0.14112
49	0xbf7d7026	-0.9899925
50	0x3f5009c2	0.8126489
51	0x3f152f58	0.58275366
52	0x3e974e6c	0.2955202
53	0x3f7490ef	0.9553365
54	0x3dc1ffc0	0.094726086
55	0x3f7ed94f	0.99550337
56	0x3cf5b91f	0.0299955
57	0x3f7fe283	0.99955004
58	0x3c1b6e0d	0.009486687
59	0x3f7ffd0d	0.999955
60	0x3b449b92	0.0029999954
61	0x3f7fffb5	0.9999955
62	0x3a78b110	0.00094868336
63	0x3f7ffff9	0.9999996
64	0xbf41bdcf	-0.7568025
65	0xbf275530	-0.6536436
66	0x3f741dde	0.95358074
67	0x3e9a2eb1	0.30113748
68	0x3ec761d7	0.38941833
69	0x3f6bcaa7	0.921061
70	0x3e012e88	0.12615407
71	0x3f7df469	0.99201065
72	0x3d23cbdb	0.039989334
73	0x3f7fcb94	0.9992001
74	0x3c4f3cc9	0.01264877
75	0x3f7ffac2	0.99992
76	0x3b831257	0.003999989
77	0x3f7fff7a	0.999992
78	0x3aa5cb5e	0.0012649109
79	0x3f7ffff3	0.9999992
80	0xbf757c10	-0.9589243
81	0x3e913c2c	0.2836622
82	0x3f7ffc7f	0.99994653
83	0xbc2972e9	-0.010342338
84	0x3ef57743	0.47942552
85	0x3f60a940	0.87758255
86	0x3e213c1d	0.15745588
87	0x3f7cce81	0.987526
88	0x3d4cb6f4	0.049979165
89	0x3f7fae19	0.99875027
90	0x3c81857e	0.015810724
91	0x3f7ff7cf	0.999875
92	0x3ba3d6dd	0.004999979
93	0x3f7fff2e	0.9999875
94	0x3acf3e33	0.0015811383
95	0x3f7fffeb	0.99999875
96	0xbe8f0f8c	-0.2794155
97	0x3f75cdb8	0.96017027
98	0x3f72784e	0.9471482
99	0xbea43f6d	-0.3207964
100	0x3f108c68	0.5646424
101	0x3f534932	0.8253356
102	0x3e41206e	0.18860027
103	0x3f7b67e3	0.98205394
104	0x3d759cd1	0.059964005
105	0x3f7f8a12	0.99820054
106	0x3c9b6c43	0.018972522
107	0x3f7ff434	0.99982
108	0x3bc49b58	0.0059999637
109	0x3f7ffed2	0.999982
110	0x3af8b108	0.0018973658
111	0x3f7fffe2	0.9999982
112	0x3f283046	0.6569866
113	0x3f40ffbd	0.75390226
114	0x3f4ce86e	0.8004216
115	0xbf1974bc	-0.5994375
116	0x3f24eb72	0.6442176
117	0x3f43ccb3	0.7648422
118	0x3e60d350	0.2195561
119	0x3f79c0ea	0.9755999
120	0x3d8f3e32	0.06994285
121	0x3f7f5f81	0.997551
122	0x3cb552a2	0.022134129
123	0x3f7feff2	0.999755
124	0x3be55fc5	0.006999942
125	0x3f7ffe65	0.9999755
126	0x3b1111ed	0.0022135929
127	0x3f7fffd7	0.99999756
128	0x3f7d4695	0.98935825
129	0xbe14fdf6	-0.14550003
130	0x3f13067e	0.5743178
131	0xbf5191e5	-0.8186324
132	0x3f37a4a5	0.717356
133	0x3f325b5f	0.6967067
134	0x3e802651	0.25029233
135	0x3f77da02	0.9681703
136	0x3da3aa50	0.07991469
137	0x3f7f2e65	0.9968017
138	0x3ccf388a	0.025295515
139	0x3f7feb08	0.99968004
140	0x3c031212	0.007999914
141	0x3f7ffde7	0.999968
142	0x3b25cb55	0.0025298197
143	0x3f7fffca	0.9999968
144	0x3ed30132	0.4121185
145	0xbf693fd5	-0.91113025
146	0x3e951fee	0.29125923
147	0xbf74e6a2	-0.9566442
148	0x3f48881c	0.78332686
149	0x3f1f21d5	0.62161
150	0x3e8fc22d	0.28077832
151	0x3f75b3a9	0.95977265
152	0x3db8123e	0.089878544
153	0x3f7ef6c2	0.9959527
154	0x3ce91dea	0.028456647
155	0x3f7fe576	0.99959505
156	0x3c13743a	0.008999879
157	0x3f7ffd59	0.9999595
158	0x3b3a84bc	0.0028460464
159	0x3f7fffbc	0.99999595
160	0xbf0b44f8	-0.5440211
161	0xbf56cd64	-0.8390715
162	0xbca97097	-0.02068357
163	0xbf7ff1fb	-0.9997861
164	0x3f576aa4	0.84147096
165	0x3f0a5141	0.54030234
166	0x3e9f393d	0.31098357
167	0x3f734e6b	0.9504153
168	0x3dcc7576	0.099833414
169	0x3f7eb898	0.9950042
170	0x3d018159	0.031617496
171	0x3f7fdf3c	0.99950004
172	0x3c23d657	0.009999833
173	0x3f7ffcb9	0.99995
174	0x3b4f3e22	0.0031622727
175	0x3f7fffac	0.999995
176	0xbf7fff5c	-0.9999902
177	0x3b910572	0.004425698
178	0xbea9411f	-0.33057496
179	0xbf719b8d	-0.94377977
180	0x3f64262a	0.89120734
181	0x3ee83dc3	0.4535962
182	0x3eae878b	0.34087786
183	0x3f70aae4	0.9401076
184	0x3de0d372	0.1097783
185	0x3f7e73e8	0.9939561
186	0x3d0e7368	0.03477803
187	0x3f7fd85b	0.9993951
188	0x3c343869	0.010999777
189	0x3f7ffc09	0.9999395
190	0x3b63f787	0.003478499
191	0x3f7fff9b	0.999994
192	0xbf095cd8	-0.53657293
193	0x3f5806d0	0.84385395
194	0xbf1b9124	-0.6076834
195	0xbf4b4f56	-0.7941793
196	0x3f6e9a1d	0.9320391
197	0x3eb986f7	0.36235783
198	0x3ebda92c	0.3704313
199	0x3f6dc9c3	0.9288599
200	0x3df52bac	0.119712204
201	0x3f7e28b5	0.99280864
202	0x3d1b6519	0.03793821
203	0x3f7fd0d2	0.9992801
204	0x3c449a70	0.011999711
205	0x3f7ffb48	0.999928
206	0x3b78b0eb	0.0037947248
207	0x3f7fff87	0.9999928
208	0x3ed72022	0.42016703
209	0x3f684e6f	0.9074468
210	0xbf53144c	-0.82452846
211	0xbf10d99d	-0.5658205
212	0x3f76abc0	0.9635582
213	0x3e88f59d	0.26749888
214	0x3ecc9a3f	0.3996143
215	0x3f6aabc3	0.9166834
216	0x3e04bed0	0.12963414
217	0x3f7dd700	0.9915619
218	0x3d285665	0.041098017
219	0x3f7fc8a1	0.9991551
220	0x3c54fc6a	0.012999633
221	0x3f7ffa76	0.9999155
222	0x3b86b526	0.00411095
223	0x3f7fff72	0.99999154
224	0x3f7d9872	0.9906074
225	0x3e0c04d7	0.13673721
226	0xbf75a8b3	-0.9596054
227	0xbe900d0a	-0.28134948
228	0x3f7c466f	0.98544973
229	0x3e2e0be7	0.16996728
230	0x3edb56f4	0.42839777
231	0x3f6751b1	0.90359026
232	0x3e0ee464	0.13954312
233	0x3f7d7ecc	0.990216
234	0x3d354743	0.044257414
235	0x3f7fbfc9	0.99902016
236	0x3c655e55	0.013999541
237	0x3f7ff994	0.999902
238	0x3b9111d6	0.004427175
239	0x3f7fff5c	0.9999902
240	0x3f267944	0.65028787
241	0xbf427ae8	-0.7596879
242	0xbf7fe075	-0.9995187
243	0x3cfe2296	0.031022351
244	0x3f7f5bd5	0.997495
245	0x3d90deba	0.07073732
246	0x3ee9db83	0.45675287
247	0x3f63bc68	0.8895936
248	0x3e19064f	0.14943813
249	0x3f7d201a	0.9887711
250	0x3d4237aa	0.047416367
251	0x3f7fb649	0.9988752
252	0x3c75c032	0.014999436
253	0x3f7ff8a1	0.9998875
254	0x3b9b6e85	0.0047433996
255	0x3f7fff43	0.99998873

weight f4 [13, 16]
0	0x00000000	0.0
1	0x3f800000	1.0
2	0x00000000	0.0
3	0x3f800000	1.0
4	0x00000000	0.0
5	0x3f800000	1.0
6	0x00000000	0.0
7	0x3f800000	1.0
8	0x00000000	0.0
9	0x3f800000	1.0
10	0x00000000	0.0
11	0x3f800000	1.0
12	0x00000000	0.0
13	0x3f800000	1.0
14	0x00000000	0.0
15	0x3f800000	1.0
16	0x3f576aa4	0.84147096
17	0x3f0a5141	0.54030234
18	0x3e9f393e	0.3109836
19	0x3f734e6b	0.9504153
20	0x3dcc7576	0.099833414
21	0x3f7eb898	0.9950042
22	0x3d01815b	0.031617504
23	0x3f7fdf3c	0.99950004
24	0x3c23d657	0.009999833
25	0x3f7ffcb9	0.99995
26	0x3b4f3e1c	0.0031622713
27	0x3f7fffac	0.999995
28	0x3a83126d	0.0009999998
29	0x3f7ffff8	0.9999995
30	0x39a5cb61	0.00031622782
31	0x3f7fffff	0.99999994
32	0x3f68c7b7	0.9092974
33	0xbed51133	-0.41614684
34	0x3f17541b	0.5911271
35	0x3f4e7bec	0.8065784
36	0x3e4b6ff8	0.19866931
37	0x3f7ae5a5	0.9800666
38	0x3d8170c8	0.063203394
39	0x3f7f7cf9	0.9980007
40	0x3ca3d43e	0.019998666
41	0x3f7ff2e5	0.9998
42	0x3bcf3dd8	0.006324511
43	0x3f7ffeb1	0.99998003
44	0x3b031268	0.0019999985
45	0x3f7fffdf	0.99999803
46	0x3a25cb60	0.0006324556
47	0x3f7ffffd	0.9999998
48	0x3e1081c3	0.14112
49	0xbf7d7026	-0.9899925
50	0x3f5009c2	0.8126489
51	0x3f152f58	0.58275366
52	0x3e974e6c	0.2955202
53	0x3f7490ef	0.9553365
54	0x3dc1ffc0	0.094726086
55	0x3f7ed94f	0.99550337
56	0x3cf5b91f	0.0299955
57	0x3f7fe283	0.99955004
58	0x3c1b6e0d	0.009486687
59	0x3f7ffd0d	0.999955
60	0x3b449b92	0.0029999954
61	0x3f7fffb5	0.9999955
62	0x3a78b110	0.00094868336
63	0x3f7ffff9	0.9999996
64	0xbf41bdcf	-0.7568025
65	0xbf275530	-0.6536436
66	0x3f741dde	0.95358074
67	0x3e9a2eb1	0.30113748
68	0x3ec761d7	0.38941833
69	0x3f6bcaa7	0.921061
70	0x3e012e88	0.12615407
71	0x3f7df469	0.99201065
72	0x3d23cbdb	0.039989334
73	0x3f7fcb94	0.9992001
74	0x3c4f3cc9	0.01264877
75	0x3f7ffac2	0.99992
76	0x3b831257	0.003999989
77	0x3f7fff7a	0.999992
78	0x3aa5cb5e	0.0012649109
79	0x3f7ffff3	0.9999992
80	0xbf757c10	-0.9589243
81	0x3e913c2c	0.2836622
82	0x3f7ffc7f	0.99994653
83	0xbc2972e9	-0.010342338
84	0x3ef57743	0.47942552
85	0x3f60a940	0.87758255
86	0x3e213c1d	0.15745588
87	0x3f7cce81	0.987526
88	0x3d4cb6f4	0.049979165
89	0x3f7fae19	0.99875027
90	0x3c81857e	0.015810724
91	0x3f7ff7cf	0.999875
92	0x3ba3d6dd	0.004999979
93	0x3f7fff2e	0.9999875
94	0x3acf3e33	0.0015811383
95	0x3f7fffeb	0.99999875
96	0xbe8f0f8c	-0.2794155
97	0x3f75cdb8	0.96017027
98	0x3f72784e	0.9471482
99	0xbea43f6d	-0.3207964
100	0x3f108c68	0.5646424
101	0x3f534932	0.8253356
102	0x3e41206e	0.18860027
103	0x3f7b67e3	0.98205394
104	0x3d759cd1	0.059964005
105	0x3f7f8a12	0.99820054
106	0x3c9b6c43	0.018972522
107	0x3f7ff434	0.99982
108	0x3bc49b58	0.0059999637
109	0x3f7ffed2	0.999982
110	0x3af8b108	0.0018973658
111	0x3f7fffe2	0.9999982
112	0x3f283046	0.6569866
113	0x3f40ffbd	0.75390226
114	0x3f4ce86e	0.8004216
115	0xbf1974bc	-0.5994375
116	0x3f24eb72	0.6442176
117	0x3f43ccb3	0.7648422
118	0x3e60d350	0.2195561
119	0x3f79c0ea	0.9755999
120	0x3d8f3e32	0.06994285
121	0x3f7f5f81	0.997551
122	0x3cb552a2	0.022134129
123	0x3f7feff2	0.999755
124	0x3be55fc5	0.006999942
125	0x3f7ffe65	0.9999755
126	0x3b1111ed	0.0022135929
127	0x3f7fffd7	0.99999756
128	0x3f7d4695	0.98935825
129	0xbe14fdf6	-0.14550003
130	0x3f13067e	0.5743178
131	0xbf5191e5	-0.8186324
132	0x3f37a4a5	0.717356
133	0x3f325b5f	0.6967067
134	0x3e802651	0.25029233
135	0x3f77da02	0.9681703
136	0x3da3aa50	0.07991469
137	0x3f7f2e65	0.9968017
138	0x3ccf388a	0.025295515
139	0x3f7feb08	0.99968004
140	0x3c031212	0.007999914
141	0x3f7ffde7	0.999968
142	0x3b25cb55	0.0025298197
143	0x3f7fffca	0.9999968
144	0x3ed30132	0.4121185
145	0xbf693fd5	-0.91113025
146	0x3e951fee	0.29125923
147	0xbf74e6a2	-0.9566442
148	0x3f48881c	0.78332686
149	0x3f1f21d5	0.62161
150	0x3e8fc22d	0.28077832
151	0x3f75b3a9	0.95977265
152	0x3db8123e	0.089878544
153	0x3f7ef6c2	0.9959527
154	0x3ce91dea	0.028456647
155	0x3f7fe576	0.99959505
156	0x3c13743a	0.008999879
157	0x3f7ffd59	0.9999595
158	0x3b3a84bc	0.0028460464
159	0x3f7fffbc	0.99999595
160	0xbf0b44f8	-0.5440211
161	0xbf56cd64	-0.8390715
162	0xbca97097	-0.02068357
163	0xbf7ff1fb	-0.9997861
164	0x3f576aa4	0.84147096
165	0x3f0a5141	0.54030234
166	0x3e9f393d	0.31098357
167	0x3f734e6b	0.9504153
168	0x3dcc7576	0.099833414
169	0x3f7eb898	0.9950042
170	0x3d018159	0.031617496
171	0x3f7fdf3c	0.99950004
172	0x3c23d657	0.009999833
173	0x3f7ffcb9	0.99995
174	0x3b4f3e22	0.0031622727
175	0x3f7fffac	0.999995
176	0xbf7fff5c	-0.9999902
177	0x3b910572	0.004425698
178	0xbea9411f	-0.33057496
179	0xbf719b8d	-0.94377977
180	0x3f64262a	0.89120734
181	0x3ee83dc3	0.4535962
182	0x3eae878b	0.34087786
183	0x3f70aae4	0.9401076
184	0x3de0d372	0.1097783
185	0x3f7e73e8	0.9939561
186	0x3d0e7368	0.03477803
187	0x3f7fd85b	0.9993951
188	0x3c343869	0.010999777
189	0x3f7ffc09	0.9999395
190	0x3b63f787	0.003478499
191	0x3f7fff9b	0.999994
192	0xbf095cd8	-0.53657293
193	0x3f5806d0	0.84385395
194	0xbf1b9124	-0.6076834
195	0xbf4b4f56	-0.7941793
196	0x3f6e9a1d	0.9320391
197	0x3eb986f7	0.36235783
198	0x3ebda92c	0.3704313
199	0x3f6dc9c3	0.9288599
200	0x3df52bac	0.119712204
201	0x3f7e28b5	0.99280864
202	0x3d1b6519	0.03793821
203	0x3f7fd0d2	0.9992801
204	0x3c449a70	0.011999711
205	0x3f7ffb48	0.999928
206	0x3b78b0eb	0.0037947248
207	0x3f7fff87	0.9999928

weight f4 [16, 16]
0	0x3e49d0db	0.19708578
1	0x3bc5e199	0.006038856
2	0x3e706c65	0.23478849
3	0xbe2ed88c	-0.17074794
4	0x3e4bd6e3	0.19906192
5	0xbe03209d	-0.1280541
6	0xbcdce7a7	-0.02696593
7	0xbdad6b58	-0.0846774
8	0x3dcdc3eb	0.10047134
9	0xbe69568c	-0.22786921
10	0x3cdada53	0.026715433
11	0xbe8207ec	-0.2539667
12	0xbb93e1da	-0.0045130076
13	0xbda4690c	-0.080278486
14	0x3e17444a	0.14772144
15	0x3da40195	0.08008114
16	0xbd97e743	-0.074171565
17	0x3def140f	0.11673748
18	0xbe9ca171	-0.3059192
19	0x3ea08ee4	0.31359017
20	0x3e00cc21	0.12577869
21	0x3d899ea6	0.06719713
22	0x3dbe7dc3	0.09301331
23	0x3eae3cd1	0.34030774
24	0xbe06a73f	-0.13149737
25	0x3e403034	0.18768388
26	0xbd763d13	-0.06011684
27	0x3d8316e9	0.06400854
28	0x3e59b15d	0.21259065
29	0x3d596a49	0.053079877
30	0xbd5edff8	-0.054412812
31	0x3e497f4c	0.19677466
32	0x3d4de526	0.05026736
33	0xbde35faf	-0.111022346
34	0xbe29e1e6	-0.1659008
35	0xbd91b8b9	-0.07115311
36	0x3c3cdb5c	0.011526909
37	0x3d6ee065	0.058319468
38	0xbe3407e7	-0.1758114
39	0x3e1b2fc7	0.15154944
40	0xbd9029e3	-0.07039239
41	0x3eb3b2c2	0.3509732
42	0x3ddfcfe0	0.10928321
43	0x3eb09d8a	0.34495193
44	0x3dc665ff	0.09687423
45	0xbdd43ea0	-0.10363507
46	0x3de51ec4	0.11187509
47	0xbd4c6b20	-0.04990685
48	0xbce48dbb	-0.027899614
49	0xbe842d3c	-0.2581576
50	0xbe49e456	-0.1971601
51	0x3deaa76f	0.11457717
52	0x3e08cf14	0.13360244
53	0xbd55773f	-0.052115675
54	0x3d9d9e55	0.07696215
55	0x3e948fc1	0.29015926
56	0xbe15ab8f	-0.14616226
57	0x3ef1b826	0.47210807
58	0x3d204fcd	0.039138604
59	0x3e21c21a	0.157967
60	0xbd357d69	-0.044309054
61	0x3d1c4b1a	0.03815756
62	0xbcfde4cd	-0.03099289
63	0x3d99820b	0.07495507
64	0x3b91c557	0.0044485736
65	0xbe10a16f	-0.14124082
66	0x3e12e08f	0.14343475
67	0xbd38b23b	-0.04509185
68	0xbe68221c	-0.22669262
69	0xbe3e5cb6	-0.18590054
70	0x3e636983	0.22208218
71	0xbde93f2e	-0.11389004
72	0xbc892c44	-0.01674474
73	0xbc556b86	-0.013026124
74	0xbda99bb3	-0.082816504
75	0xbe8285ee	-0.25492805
76	0xbe25ca63	-0.16190486
77	0xbe09398c	-0.13400859
78	0xbd60965a	-0.054830886
79	0xbdb2e675	-0.087353624
80	0xbdd3db98	-0.103446186
81	0x3e34d38e	0.17658827
82	0x3d06d708	0.032919914
83	0x3e1ed8cd	0.1551239
84	0x3e906859	0.2820461
85	0xbe762ce1	-0.24040557
86	0x3dd2bafe	0.10289572
87	0x3e35acfe	0.17741773
88	0x3d470d86	0.04859688
89	0x3e3ef642	0.18648627
90	0xbe36d6d3	-0.17855386
91	0x3d8c117d	0.06839273
92	0xbd3cbedd	-0.04608046
93	0xbdbfd3e3	-0.09366586
94	0x3dbd1ba5	0.092337884
95	0x3df279ef	0.11839663
96	0x3def5223	0.11685588
97	0xbe386ead	-0.1801097
98	0xbe66640b	-0.22499101
99	0xbc99e53c	-0.018786065
100	0xbd6a0d5e	-0.057141654
101	0x3d232e2b	0.03983895
102	0x3e80fa63	0.2519103
103	0xbda2d160	-0.07950091
104	0x3d699897	0.057030287
105	0xbd196c8b	-0.03745703
106	0x3db97208	0.09054953
107	0x3ded896f	0.11598479
108	0x3d976411	0.07392133
109	0xbb47b14b	-0.0030470665
110	0xbe747626	-0.23873195
111	0x3e751610	0.23934197
112	0xbda16f08	-0.07882506
113	0x3d2eeab8	0.042704314
114	0xbdb8ea3b	-0.09029051
115	0x39eb07b4	0.00044828432
116	0xbdba2d21	-0.09090639
117	0xbe175aea	-0.14780775
118	0x3e299d7d	0.16563983
119	0x3e78882a	0.24270692
120	0x3c647637	0.0139442
121	0x3c92a7c3	0.01790226
122	0xbdfeeb9b	-0.12447282
123	0x3d9b246c	0.07575306
124	0x3e0d5a6d	0.13804026
125	0x3da4eb27	0.08052664
126	0x3e249e00	0.16075897
127	0xbdb35761	-0.087569006
128	0xbaf255a7	-0.0018488661
129	0x3db12108	0.08648878
130	0x3e692e01	0.22771455
131	0x3e919460	0.28433514
132	0xbd1d22ea	-0.038363375
133	0x3e08b41f	0.1334996
134	0x3e062d05	0.13103111
135	0x3cc891cd	0.024483586
136	0x3d8fe9e3	0.07027032
137	0xbe42145d	-0.1895308
138	0xbca85767	-0.02054949
139	0xbe8c2add	-0.27376452
140	0xbc539dfe	-0.012916086
141	0x3d036818	0.032081693
142	0x3d2636bb	0.04057954
143	0xbe09969f	-0.13436364
144	0x3d86c368	0.065802395
145	0xbde9daf7	-0.11418717
146	0x3ec52b87	0.3850977
147	0xbe502c8f	-0.20329498
148	0xbabbdc4c	-0.0014332621
149	0xbcebd150	-0.028786331
150	0x3df52677	0.11970227
151	0xbd8d28a5	-0.06892518
152	0xbd38c078	-0.045105428
153	0xbe8ff3d5	-0.28115717
154	0x3c94910e	0.018135574
155	0xbf30f90d	-0.6913002
156	0x3b16a5b0	0.002298694
157	0xbda81b61	-0.08208347
158	0xbdd97220	-0.10617471
159	0xbe8285ce	-0.2549271
160	0x3d96ec47	0.07369285
161	0xbe1bc21e	-0.15210769
162	0x3da10bb2	0.07863559
163	0xbd84047b	-0.06446167
164	0xbeadc557	-0.3393962
165	0x3d9b937f	0.07596492
166	0xbe2ea80c	-0.17056292
167	0xbdf5503f	-0.11978196
168	0xbd11c4b0	-0.035587966
169	0xbeb22ced	-0.347999
170	0x3d313e22	0.043272145
171	0xbf48d6ce	-0.78452766
172	0x3cc14742	0.023593549
173	0xbe101cbf	-0.14073466
174	0xbdfcdf73	-0.12347307
175	0xbe0741f3	-0.13208751
176	0xbdefd430	-0.117103934
177	0x3db06977	0.08613866
178	0x3eb62ad3	0.35579547
179	0xbdbec81b	-0.09315511
180	0xbe0d51d9	-0.13800754
181	0xbe17aea3	-0.14812712
182	0xbc8f666d	-0.017504895
183	0xbd96295e	-0.07332109
184	0x3d3c7f8d	0.04602008
185	0xbe6db4e9	-0.23213543
186	0xbd687273	-0.056749772
187	0xbea8e8d3	-0.3299013
188	0xbd77736b	-0.060412806
189	0xbe3b4a4c	-0.18290061
190	0xbea587d4	-0.3233019
191	0x3e0c435a	0.13697568
192	0xbd5b97fa	-0.053611733
193	0xbdb92a7c	-0.090413064
194	0x3e5f69d1	0.2181771
195	0xbe03942f	-0.12849496
196	0xbe16e1b1	-0.14734532
197	0xbd9c0594	-0.076182514
198	0x3e075260	0.13215017
199	0xbe695d66	-0.22789535
200	0xbd665325	-0.056231637
201	0x3e95f140	0.29285622
202	0xbe0fc405	-0.1403962
203	0xbcb1fcc8	-0.02172698
204	0xbd9fcb96	-0.07802503
205	0x3daaf14c	0.08346805
206	0x3d7b7b7b	0.061397057
207	0xbdbab5ce	-0.09116708
208	0x3e378e25	0.17925318
209	0x3e9a4262	0.3012877
210	0x3c416225	0.011803185
211	0xbd8877b2	-0.06663455
212	0xbd68095a	-0.056649543
213	0x3dd12061	0.10211254
214	0x3da45a35	0.08025018
215	0xbe90bbb6	-0.28268212
216	0x3dd05dcf	0.101741426
217	0x3e0fc381	0.14039423
218	0xbe1db938	-0.15402687
219	0x3e376ef1	0.17913415
220	0x3e5c239e	0.21497962
221	0x3d5aa9b8	0.053384513
222	0xbcdd5964	-0.027020164
223	0xbd9787e3	-0.07398965
224	0xbdfa86fc	-0.122327775
225	0x3ca88faf	0.020576326
226	0xbc599281	-0.013279558
227	0xbe2299ca	-0.15878978
228	0xbd829e92	-0.06377901
229	0xbdc20094	-0.094727665
230	0x3d99b5b4	0.0750536
231	0xbdfa6af6	-0.122274324
232	0x3db49fcd	0.08819542
233	0x3e6d8721	0.23196079
234	0xbd98705d	-0.074433066
235	0xbe99ee43	-0.30064592
236	0xbd052d26	-0.03251376
237	0x3dbd743c	0.092506856
238	0xbd95e429	-0.07318909
239	0xbe25f67e	-0.1620731
240	0xbdf7c488	-0.12098032
241	0x3bff5d3b	0.0077930964
242	0xbe86cd3f	-0.26328465
243	0xbe43cdf9	-0.19121541
244	0x3d973b2e	0.073843345
245	0xbde6ee80	-0.11275959
246	0x3db404e0	0.08789992
247	0xbc7574c0	-0.014981449
248	0x3dce65d5	0.10078017
249	0xbd5aba42	-0.053400286
250	0xbd6fe1c4	-0.058564916
251	0xbc39dbf4	-0.011343945
252	0xbd985f9d	-0.07440112
253	0x3dab6edb	0.083707534
254	0xbc6dff13	-0.014526146
255	0xbe54c8bd	-0.207797

bias f4 [16]
0	0xbdd4d713	-0.10392585
1	0x3db6d2b8	0.0892691
2	0x3e4f63bf	0.20252894
3	0x3f1c56df	0.61070055
4	0x3e356519	0.17714347
5	0x3f1a270a	0.6021582
6	0x3ceb4786	0.028720628
7	0xbf0bec52	-0.5465747
8	0x3d39f47e	0.04539918
9	0xbe4f4bdd	-0.20243783
10	0xbf3157fc	-0.6927488
11	0xbf0a370e	-0.53990257
12	0xbe4e3e09	-0.20140852
13	0x3e83546c	0.25650346
14	0x3e4ae426	0.19813594
15	0xbea889c7	-0.32917616

weight f4 [16, 16]
0	0x3df2b4ef	0.118509166
1	0x3d143e30	0.03619212
2	0x3d937234	0.07199517
3	0x3e4fe885	0.20303543
4	0xbe1f76e4	-0.15572697
5	0xbe047464	-0.12935024
6	0xbe8ba696	-0.27275532
7	0x3d312aed	0.043253828
8	0x3df5a61c	0.119945735
9	0xbe5b73f3	-0.2143095
10	0x3cdf5b80	0.02726531
11	0xbe9c6914	-0.30548918
12	0x3d3420d2	0.043976612
13	0x3e31a4ed	0.1734807
14	0x3df0da7e	0.11760424
15	0xbe53883b	-0.20657437
16	0xbdf3afd9	-0.11898775
17	0xbd7df746	-0.062003396
18	0x3e0da3e8	0.13832057
19	0x3e35c82c	0.17752141
20	0xbdf29b2a	-0.118460014
21	0x3e5413a0	0.20710611
22	0x3e802d98	0.25034785
23	0x3e7ac88f	0.2449057
24	0x3dddbe66	0.10827331
25	0xbd93b10f	-0.072115056
26	0x3c800257	0.015626116
27	0x3e86bab9	0.26314333
28	0x3e9fc228	0.31202817
29	0xbca495d8	-0.020090982
30	0x3ebc55c4	0.36784184
31	0x3e0d7505	0.1381417
32	0xbc69b36d	-0.01426397
33	0x3d14f3dd	0.03636538
34	0x3af6124a	0.0018773761
35	0x3e3466cb	0.17617337
36	0x3c41ab90	0.011820689
37	0x3c9d186c	0.019176684
38	0xbc6aaca6	-0.014323389
39	0xbd919af0	-0.0710963
40	0x3e1d2889	0.15347494
41	0x3dbc88ce	0.09205781
42	0x3dd6a06e	0.10479818
43	0xbd84fd57	-0.06493633
44	0xbda9fa10	-0.08299649
45	0xbdb1ed06	-0.08687787
46	0x3d6c67ac	0.057716057
47	0x3cee1e10	0.02906707
48	0xbc1eaff1	-0.009685502
49	0xbd4a0aeb	-0.04932682
50	0x3cb4d242	0.022072915
51	0x3e5ed1c9	0.21759714
52	0x3d872cda	0.06600352
53	0xbc42e0bd	-0.011894402
54	0x3e87e835	0.26544347
55	0x3e05a29b	0.1305031
56	0x3ec44907	0.38336965
57	0x3e8fce1a	0.2808693
58	0xbdbafd8a	-0.0913039
59	0x3deb4dc3	0.11489441
60	0xbe5f5083	-0.21808057
61	0xbe54d2d4	-0.2078355
62	0x3dc55271	0.09634865
63	0x3dedee55	0.11617724
64	0xbd961501	-0.07328225
65	0xbdc7c9b8	-0.09755272
66	0xbd9c1968	-0.07622033
67	0xbe01db87	-0.126814
68	0x3ea8a35e	0.3293714
69	0xbe83058b	-0.25590166
70	0x3e0bf4ca	0.13667598
71	0x3d26105c	0.040542945
72	0x3e26e7ea	0.16299406
73	0x3e225af2	0.15855005
74	0xbd987d5f	-0.07445788
75	0xbe01b1db	-0.12665503
76	0xbe45783c	-0.19284147
77	0x3e14c11c	0.1452679
78	0xbe8861ec	-0.26637208
79	0xbe11fa49	-0.14255632
80	0xbc95a8d6	-0.018268984
81	0x3d20448f	0.039127883
82	0x3e5354ed	0.20637865
83	0x3d892a55	0.06697527
84	0x3d33a673	0.04385991
85	0xbe53b74a	-0.20675388
86	0xbd9c02be	-0.076177105
87	0xbdf1718c	-0.117892355
88	0x3c75369e	0.014966635
89	0xbe4b2805	-0.19839485
90	0xbc94f2e8	-0.018182233
91	0x3e9210fc	0.28528583
92	0x3e0f5da9	0.14000572
93	0xbe26e265	-0.162973
94	0x3c677ba5	0.0141286
95	0xbdf4b716	-0.11948983
96	0x3d835b6c	0.06413922
97	0x3e19cbee	0.15019199
98	0x3e6f33db	0.23359625
99	0x3d7250bf	0.059159037
100	0xbde68b83	-0.112570785
101	0xbe553f6a	-0.20824972
102	0xbda221d4	-0.079166085
103	0x3e3ced05	0.18449791
104	0xbd24b337	-0.040209975
105	0xbdf9e8b9	-0.122025914
106	0xbdf8cd8b	-0.12148579
107	0xbe58cb0b	-0.21171205
108	0xbd8228c4	-0.06355432
109	0x3cb58e60	0.022162616
110	0x3d743fe7	0.059631255
111	0x3d03d88a	0.03218893
112	0xbd5aa002	-0.05337525
113	0x3d98f08f	0.07467758
114	0xbe0045d9	-0.12526645
115	0xbd996f2e	-0.07491909
116	0xbcf13808	-0.029445663
117	0xbbee8720	-0.0072792917
118	0x3b41f814	0.002959733
119	0x3dfe229a	0.124089435
120	0xbce414e2	-0.027841989
121	0xbe4707eb	-0.19436614
122	0xbe359d26	-0.17735729
123	0x3e97d471	0.29654267
124	0xbe96c145	-0.29444328
125	0x3de1d5f0	0.110271335
126	0xbd334610	-0.04376799
127	0x3e3c4d24	0.18388802
128	0x3c92d17c	0.017922156
129	0x3d0e511b	0.034745317
130	0x3df385a7	0.118907265
131	0x3e06b22b	0.13153903
132	0xbdba336d	-0.0909184
133	0x3d83c275	0.06433574
134	0x3da3bcfb	0.079950295
135	0xbde1e755	-0.11030451
136	0xbcabf022	-0.020988528
137	0xbd8e27f8	-0.06941217
138	0x3a842dd2	0.0010084456
139	0xbf323400	-0.69610596
140	0x3d27fb8a	0.04101137
141	0x3b5efeb1	0.003402632
142	0xbdd0c7c3	-0.101943515
143	0x3de9a3df	0.11408209
144	0x3d18e34c	0.037326142
145	0x3cb0b208	0.021569267
146	0x3deebeb3	0.11657467
147	0xbe9a2fb9	-0.30114534
148	0xbdde94d1	-0.10868228
149	0x3e02b6d2	0.12765053
150	0x3e146fca	0.14495769
151	0xbd9aabaa	-0.075522736
152	0x3c8c2d29	0.017111378
153	0xbce587c4	-0.02801884
154	0x3c9501ac	0.018189274
155	0x3e9a9b87	0.30196783
156	0x3df74399	0.1207344
157	0x3a01a0f8	0.00049449457
158	0xbe1618dd	-0.14657922
159	0xbdce06e9	-0.10059912
160	0xbe252ddd	-0.16130777
161	0x3e22a040	0.15881443
162	0xbd62b0da	-0.05534444
163	0x3d7e007a	0.062012173
164	0x3e5a5fc1	0.2132559
165	0x3e225302	0.15851977
166	0xbdd4df3d	-0.10394142
167	0xbe7a96a4	-0.24471527
168	0x3dd1e629	0.10248978
169	0x3e001068	0.12506258
170	0x3b00e181	0.001966566
171	0x3e2cf836	0.1689156
172	0x3db74cad	0.089501716
173	0xbcf05763	-0.029338544
174	0xbdae265d	-0.08503411
175	0xbd8a7f2c	-0.06762537
176	0xbdb8d3e0	-0.09024787
177	0x3dd14f9a	0.10220261
178	0xbe22d739	-0.15902413
179	0x3d35ce63	0.04438628
180	0x3e019b9a	0.12657014
181	0x3dd8f93d	0.105944134
182	0xbd70e0e6	-0.05880823
183	0xbdd79e77	-0.10528272
184	0x3d69e739	0.057105277
185	0x3d9774cb	0.07395323
186	0x3b3d2946	0.0028863712
187	0x3e4586ce	0.19289705
188	0x3d629296	0.055315576
189	0xbc7bb30f	-0.015362515
190	0xbd378c52	-0.044811554
191	0xbcbdbcd0	-0.023161322
192	0xbd0cf691	-0.03441483
193	0xbe0cafb1	-0.13738896
194	0xbdbd6d7e	-0.092493996
195	0x3da8d59e	0.08243869
196	0x3df6c880	0.12049961
197	0x3d8268c3	0.06367638
198	0x3e262b9f	0.16227578
199	0x3d860590	0.0654403
200	0x3e8c3142	0.2738133
201	0xbca81950	-0.020519882
202	0xbe856f02	-0.26061255
203	0x3ecdd65a	0.402026
204	0xbd90adba	-0.07064386
205	0xbcb77fb7	-0.022399766
206	0xbe2ef0dc	-0.17084068
207	0xbc9d97aa	-0.019237358
208	0x3d7c7255	0.061632473
209	0x3eac1883	0.3361245
210	0x3ea0ae81	0.31383136
211	0xbcda4a52	-0.026646767
212	0xbdb3b95f	-0.08775591
213	0xbd3d14b4	-0.046162322
214	0x3e1f6c30	0.15568614
215	0x3d29c053	0.04144318
216	0xbcd005d4	-0.025393404
217	0x3c3472a8	0.011013664
218	0xbe3acc46	-0.18241987
219	0xbdb30924	-0.08741978
220	0xbd96fdbc	-0.07372615
221	0x3dc30f5c	0.09524414
222	0xbcb2872c	-0.02179297
223	0x3dda2e76	0.10653393
224	0x3d841f2f	0.0645126
225	0x3dd9bcaf	0.10631692
226	0x3f0ef489	0.5584188
227	0xbe03cedb	-0.12871878
228	0x3e14cc95	0.14531167
229	0xbd9c292f	-0.07625043
230	0x3d0440e6	0.032288454
231	0xbd01fc54	-0.03173478
232	0x3d8ca9a2	0.068682924
233	0xbc09994c	-0.008398365
234	0xbe0c6513	-0.13710432
235	0xbe13cc26	-0.14433345
236	0x3ddff0a1	0.10934568
237	0xbf0e7219	-0.5564285
238	0x3d660821	0.056160096
239	0x3df70ceb	0.12063011
240	0xbe6802e8	-0.22657359
241	0xbe00a76e	-0.1256387
242	0x3dafa66a	0.08576663
243	0x3d83a99a	0.06428833
244	0xbda0af92	-0.078459874
245	0x3d646bec	0.055766985
246	0xbcddb8bd	-0.02706563
247	0x3d5073eb	0.050891798
248	0xbd0e0485	-0.03467228
249	0x3cf87e31	0.03033361
250	0x3de20fdd	0.11038182
251	0xbece23f1	-0.40261796
252	0xbdf0ab53	-0.117514275
253	0xbe043814	-0.12912017
254	0xbd8dbd17	-0.06920832
255	0xbd2ed73e	-0.04268574

bias f4 [16]
0	0xbe54f692	-0.20797184
1	0x3da54d06	0.08071332
2	0xbd168cfc	-0.036755547
3	0xbdc536d5	-0.09629599
4	0xbdd1095a	-0.10206862
5	0x3ddedbba	0.10881753
6	0xbe21731f	-0.15766571
7	0xbc6b1ca0	-0.014350086
8	0xbe4c0f73	-0.19927768
9	0xbe70bcbf	-0.23509501
10	0x3da8fa23	0.08250835
11	0x3d51a5f7	0.051183667
12	0x3e565a28	0.2093283
13	0x3da4dc2b	0.08049806
14	0xbda03484	-0.078225166
15	0x3db26a1f	0.08711647
